tests/N500epsilon5.0r5.5lz205.5sig0.8nc12012dt0.002bdump1000adump5000ens1.j07-all-thetaEdgeCrd.npy (npy, 712 bytes, 1 tensors)

array f8 [73]
000000 18 2d 44 54 fb 21 09 c0 f4 f2 ec 91 42 6f 08 c0
       -3.141592653589793 -3.0543261909900767
000010 d0 b8 95 cf 89 bc 07 c0 ac 7e 3e 0d d1 09 07 c0
       -2.9670597283903604 -2.879793265790644
000020 88 44 e7 4a 18 57 06 c0 64 0a 90 88 5f a4 05 c0
       -2.7925268031909276 -2.7052603405912112
000030 40 d0 38 c6 a6 f1 04 c0 1c 96 e1 03 ee 3e 04 c0
       -2.617993877991495 -2.5307274153917785
000040 f8 5b 8a 41 35 8c 03 c0 d4 21 33 7f 7c d9 02 c0
       -2.443460952792062 -2.3561944901923457
000050 b0 e7 db bc c3 26 02 c0 8c ad 84 fa 0a 74 01 c0
       -2.2689280275926293 -2.181661564992913
000060 68 73 2d 38 52 c1 00 c0 44 39 d6 75 99 0e 00 c0
       -2.0943951023931966 -2.00712863979348
000070 40 fe fd 66 c1 b7 fe bf f8 89 4f e2 4f 52 fd bf
       -1.9198621771937638 -1.8325957145940475
000080 b0 15 a1 5d de ec fb bf 68 a1 f2 d8 6c 87 fa bf
       -1.745329251994331 -1.6580627893946147
000090 20 2d 44 54 fb 21 f9 bf d8 b8 95 cf 89 bc f7 bf
       -1.5707963267948983 -1.483529864195182
0000a0 90 44 e7 4a 18 57 f6 bf 48 d0 38 c6 a6 f1 f4 bf
       -1.3962634015954656 -1.3089969389957492
0000b0 00 5c 8a 41 35 8c f3 bf b8 e7 db bc c3 26 f2 bf
       -1.2217304763960328 -1.1344640137963165
0000c0 70 73 2d 38 52 c1 f0 bf 50 fe fd 66 c1 b7 ee bf
       -1.0471975511966 -0.9599310885968837
0000d0 c0 15 a1 5d de ec eb bf 30 2d 44 54 fb 21 e9 bf
       -0.8726646259971673 -0.7853981633974509
0000e0 a0 44 e7 4a 18 57 e6 bf 10 5c 8a 41 35 8c e3 bf
       -0.6981317007977346 -0.6108652381980182
0000f0 80 73 2d 38 52 c1 e0 bf e0 15 a1 5d de ec db bf
       -0.5235987755983018 -0.43633231299858544
000100 c0 44 e7 4a 18 57 d6 bf a0 73 2d 38 52 c1 d0 bf
       -0.34906585039886906 -0.2617993877991527
000110 00 45 e7 4a 18 57 c6 bf 80 45 e7 4a 18 57 b6 bf
       -0.1745329251994363 -0.08726646259971993
000120 00 00 00 00 00 00 f0 bc 80 43 e7 4a 18 57 b6 3f
       -3.552713678800501e-15 0.08726646259971282
000130 00 44 e7 4a 18 57 c6 3f 20 73 2d 38 52 c1 d0 3f
       0.1745329251994292 0.2617993877991456
000140 40 44 e7 4a 18 57 d6 3f 60 15 a1 5d de ec db 3f
       0.34906585039886195 0.43633231299857833
000150 40 73 2d 38 52 c1 e0 3f d0 5b 8a 41 35 8c e3 3f
       0.5235987755982947 0.6108652381980111
000160 60 44 e7 4a 18 57 e6 3f f0 2c 44 54 fb 21 e9 3f
       0.6981317007977275 0.7853981633974438
000170 80 15 a1 5d de ec eb 3f 10 fe fd 66 c1 b7 ee 3f
       0.8726646259971602 0.9599310885968766
000180 50 73 2d 38 52 c1 f0 3f 98 e7 db bc c3 26 f2 3f
       1.047197551196593 1.1344640137963093
000190 e0 5b 8a 41 35 8c f3 3f 28 d0 38 c6 a6 f1 f4 3f
       1.2217304763960257 1.308996938995742
0001a0 70 44 e7 4a 18 57 f6 3f b8 b8 95 cf 89 bc f7 3f
       1.3962634015954585 1.4835298641951749
0001b0 00 2d 44 54 fb 21 f9 3f 48 a1 f2 d8 6c 87 fa 3f
       1.5707963267948912 1.6580627893946076
0001c0 90 15 a1 5d de ec fb 3f d8 89 4f e2 4f 52 fd 3f
       1.745329251994324 1.8325957145940404
0001d0 20 fe fd 66 c1 b7 fe 3f 34 39 d6 75 99 0e 00 40
       1.9198621771937567 2.007128639793473
0001e0 58 73 2d 38 52 c1 00 40 7c ad 84 fa 0a 74 01 40
       2.0943951023931895 2.181661564992906
0001f0 a0 e7 db bc c3 26 02 40 c4 21 33 7f 7c d9 02 40
       2.2689280275926222 2.3561944901923386
000200 e8 5b 8a 41 35 8c 03 40 0c 96 e1 03 ee 3e 04 40
       2.443460952792055 2.5307274153917714
000210 30 d0 38 c6 a6 f1 04 40 54 0a 90 88 5f a4 05 40
       2.6179938779914878 2.705260340591204
000220 78 44 e7 4a 18 57 06 40 9c 7e 3e 0d d1 09 07 40
       2.7925268031909205 2.879793265790637
000230 c0 b8 95 cf 89 bc 07 40 e4 f2 ec 91 42 6f 08 40
       2.9670597283903533 3.0543261909900696
000240 08 2d 44 54 fb 21 09 40
       3.141592653589786
